…
npy format events data root /userhome/datasets/DVS128Gesture/events_npy/train, /userhome/datasets/DVS128Gesture/events_npy/test already exists
frames data root /userhome/datasets/DVS128Gesture/frames_num_20_split_by_number_normalization_None already exists.
npy format events data root /userhome/datasets/DVS128Gesture/events_npy/train, /userhome/datasets/DVS128Gesture/events_npy/test already exists
frames data root /userhome/datasets/DVS128Gesture/frames_num_20_split_by_number_normalization_None already exists.
train dataset len 803, val dataset len 133
DVS128GestureNet(
(boost): AvgPool1d(kernel_size=(10,), stride=(10,), padding=(0,))
(conv): Sequential(
(0): Conv2d(2, 128, kernel_size=(3, 3), stride=(1, 1), padding=(1, 1), bias=False)
(1): BatchNorm2d(128, eps=1e-05, momentum=0.1, affine=True, track_running_stats=True)
(2): PLIFNode(
v_threshold=1.0, v_reset=0.0, tau=2.0
(surrogate_function): ATan(alpha=2.0, spiking=True, learnable=False)
)
(3): MaxPool2d(kernel_size=2, stride=2, padding=0, dilation=1, ceil_mode=False)
(4): Conv2d(128, 128, kernel_size=(3, 3), stride=(1, 1), padding=(1, 1), bias=False)
(5): BatchNorm2d(128, eps=1e-05, momentum=0.1, affine=True, track_running_stats=True)
(6): PLIFNode(
v_threshold=1.0, v_reset=0.0, tau=2.0
(surrogate_function): ATan(alpha=2.0, spiking=True, learnable=False)
)
(7): MaxPool2d(kernel_size=2, stride=2, padding=0, dilation=1, ceil_mode=False)
(8): Conv2d(128, 128, kernel_size=(3, 3), stride=(1, 1), padding=(1, 1), bias=False)
(9): BatchNorm2d(128, eps=1e-05, momentum=0.1, affine=True, track_running_stats=True)
(10): PLIFNode(
v_threshold=1.0, v_reset=0.0, tau=2.0
(surrogate_function): ATan(alpha=2.0, spiking=True, learnable=False)
)
(11): MaxPool2d(kernel_size=2, stride=2, padding=0, dilation=1, ceil_mode=False)
(12): Conv2d(128, 128, kernel_size=(3, 3), stride=(1, 1), padding=(1, 1), bias=False)
(13): BatchNorm2d(128, eps=1e-05, momentum=0.1, affine=True, track_running_stats=True)
(14): PLIFNode(
v_threshold=1.0, v_reset=0.0, tau=2.0
(surrogate_function): ATan(alpha=2.0, spiking=True, learnable=False)
)
(15): MaxPool2d(kernel_size=2, stride=2, padding=0, dilation=1, ceil_mode=False)
(16): Conv2d(128, 128, kernel_size=(3, 3), stride=(1, 1), padding=(1, 1), bias=False)
(17): BatchNorm2d(128, eps=1e-05, momentum=0.1, affine=True, track_running_stats=True)
(18): PLIFNode(
v_threshold=1.0, v_reset=0.0, tau=2.0
(surrogate_function): ATan(alpha=2.0, spiking=True, learnable=False)
)
(19): MaxPool2d(kernel_size=2, stride=2, padding=0, dilation=1, ceil_mode=False)
)
(fc): Sequential(
(0): Flatten()
(1): Dropout(p=0.5, dropout_spikes=False)
(2): Linear(in_features=2048, out_features=512, bias=False)
(3): PLIFNode(
v_threshold=1.0, v_reset=0.0, tau=2.0
(surrogate_function): ATan(alpha=2.0, spiking=True, learnable=False)
)
(4): Dropout(p=0.5, dropout_spikes=True)
(5): Linear(in_features=512, out_features=110, bias=False)
(6): PLIFNode(
v_threshold=1.0, v_reset=0.0, tau=2.0
(surrogate_function): ATan(alpha=2.0, spiking=True, learnable=False)
)
)
)
log_dir=/userhome/plif_test/logsd/val_0.15_DVS128Gesture_init_tau_2.0_use_plif_True_use_max_pool_True_T_20_c_128_n_5_split_by_number_normalization_None_detach_reset_True, max_val_accuracy=0, max_val_test_accuracy=0, train_times=0, epoch=0
…
