…
/userhome/plif_test/logsd/val_0.15_CIFAR10_init_tau_2.0_use_plif_True_use_max_pool_True_T_8_detach_reset_True /userhome/plif_test/logsd/pt_val_0.15_CIFAR10_init_tau_2.0_use_plif_True_use_max_pool_True_T_8_detach_reset_True
I1017 10:07:53.175977 6 leaderelection.go:289] failed to renew lease 370bd91f80306bc85bff388d10a69b4e/7b5a8d000101d011eb09b2e047c254019ff1: failed to tryAcquireOrRenew context canceled
Files already downloaded and verified
Files already downloaded and verified
train dataset len 42500, val dataset len 7500
Cifar10Net(
(boost): AvgPool1d(kernel_size=(10,), stride=(10,), padding=(0,))
(static_conv): Sequential(
(0): Conv2d(3, 256, kernel_size=(3, 3), stride=(1, 1), padding=(1, 1), bias=False)
(1): BatchNorm2d(256, eps=1e-05, momentum=0.1, affine=True, track_running_stats=True)
)
(conv): Sequential(
(0): PLIFNode(
v_threshold=1.0, v_reset=0.0, tau=2.0
(surrogate_function): ATan(alpha=2.0, spiking=True, learnable=False)
)
(1): Conv2d(256, 256, kernel_size=(3, 3), stride=(1, 1), padding=(1, 1), bias=False)
(2): BatchNorm2d(256, eps=1e-05, momentum=0.1, affine=True, track_running_stats=True)
(3): PLIFNode(
v_threshold=1.0, v_reset=0.0, tau=2.0
(surrogate_function): ATan(alpha=2.0, spiking=True, learnable=False)
)
(4): Conv2d(256, 256, kernel_size=(3, 3), stride=(1, 1), padding=(1, 1), bias=False)
(5): BatchNorm2d(256, eps=1e-05, momentum=0.1, affine=True, track_running_stats=True)
(6): PLIFNode(
v_threshold=1.0, v_reset=0.0, tau=2.0
(surrogate_function): ATan(alpha=2.0, spiking=True, learnable=False)
)
(7): MaxPool2d(kernel_size=2, stride=2, padding=0, dilation=1, ceil_mode=False)
(8): Conv2d(256, 256, kernel_size=(3, 3), stride=(1, 1), padding=(1, 1), bias=False)
(9): BatchNorm2d(256, eps=1e-05, momentum=0.1, affine=True, track_running_stats=True)
(10): PLIFNode(
v_threshold=1.0, v_reset=0.0, tau=2.0
(surrogate_function): ATan(alpha=2.0, spiking=True, learnable=False)
)
(11): Conv2d(256, 256, kernel_size=(3, 3), stride=(1, 1), padding=(1, 1), bias=False)
(12): BatchNorm2d(256, eps=1e-05, momentum=0.1, affine=True, track_running_stats=True)
(13): PLIFNode(
v_threshold=1.0, v_reset=0.0, tau=2.0
(surrogate_function): ATan(alpha=2.0, spiking=True, learnable=False)
)
(14): Conv2d(256, 256, kernel_size=(3, 3), stride=(1, 1), padding=(1, 1), bias=False)
(15): BatchNorm2d(256, eps=1e-05, momentum=0.1, affine=True, track_running_stats=True)
(16): PLIFNode(
v_threshold=1.0, v_reset=0.0, tau=2.0
(surrogate_function): ATan(alpha=2.0, spiking=True, learnable=False)
)
(17): MaxPool2d(kernel_size=2, stride=2, padding=0, dilation=1, ceil_mode=False)
)
(fc): Sequential(
(0): Flatten()
(1): Dropout(p=0.5, dropout_spikes=True)
(2): Linear(in_features=16384, out_features=2048, bias=False)
(3): PLIFNode(
v_threshold=1.0, v_reset=0.0, tau=2.0
(surrogate_function): ATan(alpha=2.0, spiking=True, learnable=False)
)
(4): Linear(in_features=2048, out_features=100, bias=False)
(5): PLIFNode(
v_threshold=1.0, v_reset=0.0, tau=2.0
(surrogate_function): ATan(alpha=2.0, spiking=True, learnable=False)
)
)
)
log_dir=/userhome/plif_test/logsd/val_0.15_CIFAR10_init_tau_2.0_use_plif_True_use_max_pool_True_T_8_detach_reset_True, max_val_accuracy=0, max_val_test_accuracy=0, train_times=0, epoch=0
Namespace(T=8, T_max=64, alpha_learnable=False, batch_size=16, channels=None, dataset_name='CIFAR10', detach_reset=True, device='cuda:0', init_tau=2.0, learning_rate=0.001, log_dir_prefix='/userhome/plif_test/logsd', max_epoch=1024, normalization=None, number_layer=None, split_by=None, use_max_pool=True, use_plif=True, val_ratio=0.15)
…
